…
/home/zhang/anaconda3/envs/pytorch/lib/python3.9/site-packages/torchvision/transforms/transforms.py:280: UserWarning: Argument interpolation should be of type InterpolationMode instead of int. Please, use InterpolationMode enum.
  warnings.warn(
something: 174 classes
[32m[03/31 15:31:26 TDN]: [39mstoring name: TDN__something_RGB_tea50_avg_segment8_e50
Initializing TSN with base model: tea50.
                      TSN Configurations:
                      input_modality:     RGB
                      num_segments:       8
                      new_length:         1
                      consensus_module:   avg
                      dropout_ratio:      0.5
                      img_feature_dim:    256
=> base model: tea50
Reconstructing first conv...
TSN(
  (base_model): Res2Net(
    (conv1): Conv2d(9, 64, kernel_size=(7, 7), stride=(2, 2), padding=(3, 3), bias=False)
    (bn1): BatchNorm2d(64, eps=1e-05, momentum=0.1, affine=True, track_running_stats=True)
    (relu): ReLU(inplace=True)
    (maxpool): MaxPool2d(kernel_size=3, stride=2, padding=1, dilation=1, ceil_mode=False)
    (layer1): Sequential(
      (0): Bottle2neckShift(
        (me): MEModule(
          (conv1): Conv2d(104, 6, kernel_size=(1, 1), stride=(1, 1), bias=False)
          (bn1): BatchNorm2d(6, eps=1e-05, momentum=0.1, affine=True, track_running_stats=True)
          (conv2): Conv2d(6, 6, kernel_size=(3, 3), stride=(1, 1), padding=(1, 1), groups=6, bias=False)
          (avg_pool): AdaptiveAvgPool2d(output_size=1)
          (sigmoid): Sigmoid()
          (conv3): Conv2d(6, 104, kernel_size=(1, 1), stride=(1, 1), bias=False)
          (bn3): BatchNorm2d(104, eps=1e-05, momentum=0.1, affine=True, track_running_stats=True)
          (identity): Identity()
        )
        (conv1): Conv2d(64, 104, kernel_size=(1, 1), stride=(1, 1), bias=False)
        (bn1): BatchNorm2d(104, eps=1e-05, momentum=0.1, affine=True, track_running_stats=True)
        (pool): AvgPool2d(kernel_size=3, stride=1, padding=1)
        (convs): ModuleList(
          (0): Conv2d(26, 26, kernel_size=(3, 3), stride=(1, 1), padding=(1, 1), bias=False)
          (1): Conv2d(26, 26, kernel_size=(3, 3), stride=(1, 1), padding=(1, 1), bias=False)
          (2): Conv2d(26, 26, kernel_size=(3, 3), stride=(1, 1), padding=(1, 1), bias=False)
        )
        (bns): ModuleList(
          (0): BatchNorm2d(26, eps=1e-05, momentum=0.1, affine=True, track_running_stats=True)
          (1): BatchNorm2d(26, eps=1e-05, momentum=0.1, affine=True, track_running_stats=True)
          (2): BatchNorm2d(26, eps=1e-05, momentum=0.1, affine=True, track_running_stats=True)
        )
        (shifts): ModuleList(
          (0): ShiftModule(
            (conv): Conv1d(26, 26, kernel_size=(3,), stride=(1,), padding=(1,), groups=26, bias=False)
          )
          (1): ShiftModule(
            (conv): Conv1d(26, 26, kernel_size=(3,), stride=(1,), padding=(1,), groups=26, bias=False)
          )
          (2): ShiftModule(
            (conv): Conv1d(26, 26, kernel_size=(3,), stride=(1,), padding=(1,), groups=26, bias=False)
          )
          (3): ShiftModule(
            (conv): Conv1d(26, 26, kernel_size=(3,), stride=(1,), padding=(1,), groups=26, bias=False)
          )
        )
        (conv3): Conv2d(104, 256, kernel_size=(1, 1), stride=(1, 1), bias=False)
        (bn3): BatchNorm2d(256, eps=1e-05, momentum=0.1, affine=True, track_running_stats=True)
        (relu): ReLU(inplace=True)
        (downsample): Sequential(
          (0): Conv2d(64, 256, kernel_size=(1, 1), stride=(1, 1), bias=False)
          (1): BatchNorm2d(256, eps=1e-05, momentum=0.1, affine=True, track_running_stats=True)
        )
      )
      (1): Bottle2neckShift(
        (me): MEModule(
          (conv1): Conv2d(104, 6, kernel_size=(1, 1), stride=(1, 1), bias=False)
          (bn1): BatchNorm2d(6, eps=1e-05, momentum=0.1, affine=True, track_running_stats=True)
          (conv2): Conv2d(6, 6, kernel_size=(3, 3), stride=(1, 1), padding=(1, 1), groups=6, bias=False)
          (avg_pool): AdaptiveAvgPool2d(output_size=1)
          (sigmoid): Sigmoid()
          (conv3): Conv2d(6, 104, kernel_size=(1, 1), stride=(1, 1), bias=False)
          (bn3): BatchNorm2d(104, eps=1e-05, momentum=0.1, affine=True, track_running_stats=True)
          (identity): Identity()
        )
        (conv1): Conv2d(256, 104, kernel_size=(1, 1), stride=(1, 1), bias=False)
        (bn1): BatchNorm2d(104, eps=1e-05, momentum=0.1, affine=True, track_running_stats=True)
        (convs): ModuleList(
          (0): Conv2d(26, 26, kernel_size=(3, 3), stride=(1, 1), padding=(1, 1), bias=False)
          (1): Conv2d(26, 26, kernel_size=(3, 3), stride=(1, 1), padding=(1, 1), bias=False)
          (2): Conv2d(26, 26, kernel_size=(3, 3), stride=(1, 1), padding=(1, 1), bias=False)
        )
        (bns): ModuleList(
          (0): BatchNorm2d(26, eps=1e-05, momentum=0.1, affine=True, track_running_stats=True)
          (1): BatchNorm2d(26, eps=1e-05, momentum=0.1, affine=True, track_running_stats=True)
          (2): BatchNorm2d(26, eps=1e-05, momentum=0.1, affine=True, track_running_stats=True)
        )
        (shifts): ModuleList(
          (0): ShiftModule(
            (conv): Conv1d(26, 26, kernel_size=(3,), stride=(1,), padding=(1,), groups=26, bias=False)
          )
          (1): ShiftModule(
            (conv): Conv1d(26, 26, kernel_size=(3,), stride=(1,), padding=(1,), groups=26, bias=False)
          )
          (2): ShiftModule(
            (conv): Conv1d(26, 26, kernel_size=(3,), stride=(1,), padding=(1,), groups=26, bias=False)
          )
          (3): ShiftModule(
            (conv): Conv1d(26, 26, kernel_size=(3,), stride=(1,), padding=(1,), groups=26, bias=False)
          )
        )
        (conv3): Conv2d(104, 256, kernel_size=(1, 1), stride=(1, 1), bias=False)
        (bn3): BatchNorm2d(256, eps=1e-05, momentum=0.1, affine=True, track_running_stats=True)
        (relu): ReLU(inplace=True)
      )
      (2): Bottle2neckShift(
        (me): MEModule(
          (conv1): Conv2d(104, 6, kernel_size=(1, 1), stride=(1, 1), bias=False)
          (bn1): BatchNorm2d(6, eps=1e-05, momentum=0.1, affine=True, track_running_stats=True)
          (conv2): Conv2d(6, 6, kernel_size=(3, 3), stride=(1, 1), padding=(1, 1), groups=6, bias=False)
          (avg_pool): AdaptiveAvgPool2d(output_size=1)
          (sigmoid): Sigmoid()
          (conv3): Conv2d(6, 104, kernel_size=(1, 1), stride=(1, 1), bias=False)
          (bn3): BatchNorm2d(104, eps=1e-05, momentum=0.1, affine=True, track_running_stats=True)
          (identity): Identity()
        )
        (conv1): Conv2d(256, 104, kernel_size=(1, 1), stride=(1, 1), bias=False)
        (bn1): BatchNorm2d(104, eps=1e-05, momentum=0.1, affine=True, track_running_stats=True)
        (convs): ModuleList(
          (0): Conv2d(26, 26, kernel_size=(3, 3), stride=(1, 1), padding=(1, 1), bias=False)
          (1): Conv2d(26, 26, kernel_size=(3, 3), stride=(1, 1), padding=(1, 1), bias=False)
          (2): Conv2d(26, 26, kernel_size=(3, 3), stride=(1, 1), padding=(1, 1), bias=False)
        )
        (bns): ModuleList(
          (0): BatchNorm2d(26, eps=1e-05, momentum=0.1, affine=True, track_running_stats=True)
          (1): BatchNorm2d(26, eps=1e-05, momentum=0.1, affine=True, track_running_stats=True)
          (2): BatchNorm2d(26, eps=1e-05, momentum=0.1, affine=True, track_running_stats=True)
        )
        (shifts): ModuleList(
          (0): ShiftModule(
            (conv): Conv1d(26, 26, kernel_size=(3,), stride=(1,), padding=(1,), groups=26, bias=False)
          )
          (1): ShiftModule(
            (conv): Conv1d(26, 26, kernel_size=(3,), stride=(1,), padding=(1,), groups=26, bias=False)
          )
          (2): ShiftModule(
            (conv): Conv1d(26, 26, kernel_size=(3,), stride=(1,), padding=(1,), groups=26, bias=False)
          )
          (3): ShiftModule(
            (conv): Conv1d(26, 26, kernel_size=(3,), stride=(1,), padding=(1,), groups=26, bias=False)
          )
        )
        (conv3): Conv2d(104, 256, kernel_size=(1, 1), stride=(1, 1), bias=False)
        (bn3): BatchNorm2d(256, eps=1e-05, momentum=0.1, affine=True, track_running_stats=True)
        (relu): ReLU(inplace=True)
      )
    )
    (layer2): Sequential(
      (0): Bottle2neckShift(
        (me): MEModule(
          (conv1): Conv2d(208, 13, kernel_size=(1, 1), stride=(1, 1), bias=False)
          (bn1): BatchNorm2d(13, eps=1e-05, momentum=0.1, affine=True, track_running_stats=True)
          (conv2): Conv2d(13, 13, kernel_size=(3, 3), stride=(1, 1), padding=(1, 1), groups=13, bias=False)
          (avg_pool): AdaptiveAvgPool2d(output_size=1)
          (sigmoid): Sigmoid()
          (conv3): Conv2d(13, 208, kernel_size=(1, 1), stride=(1, 1), bias=False)
          (bn3): BatchNorm2d(208, eps=1e-05, momentum=0.1, affine=True, track_running_stats=True)
          (identity): Identity()
        )
        (conv1): Conv2d(256, 208, kernel_size=(1, 1), stride=(1, 1), bias=False)
        (bn1): BatchNorm2d(208, eps=1e-05, momentum=0.1, affine=True, track_running_stats=True)
        (pool): AvgPool2d(kernel_size=3, stride=2, padding=1)
        (convs): ModuleList(
          (0): Conv2d(52, 52, kernel_size=(3, 3), stride=(2, 2), padding=(1, 1), bias=False)
          (1): Conv2d(52, 52, kernel_size=(3, 3), stride=(2, 2), padding=(1, 1), bias=False)
          (2): Conv2d(52, 52, kernel_size=(3, 3), stride=(2, 2), padding=(1, 1), bias=False)
        )
        (bns): ModuleList(
          (0): BatchNorm2d(52, eps=1e-05, momentum=0.1, affine=True, track_running_stats=True)
          (1): BatchNorm2d(52, eps=1e-05, momentum=0.1, affine=True, track_running_stats=True)
          (2): BatchNorm2d(52, eps=1e-05, momentum=0.1, affine=True, track_running_stats=True)
        )
        (shifts): ModuleList(
          (0): ShiftModule(
            (conv): Conv1d(52, 52, kernel_size=(3,), stride=(1,), padding=(1,), groups=52, bias=False)
          )
          (1): ShiftModule(
            (conv): Conv1d(52, 52, kernel_size=(3,), stride=(1,), padding=(1,), groups=52, bias=False)
          )
          (2): ShiftModule(
            (conv): Conv1d(52, 52, kernel_size=(3,), stride=(1,), padding=(1,), groups=52, bias=False)
          )
          (3): ShiftModule(
            (conv): Conv1d(52, 52, kernel_size=(3,), stride=(1,), padding=(1,), groups=52, bias=False)
          )
        )
        (conv3): Conv2d(208, 512, kernel_size=(1, 1), stride=(1, 1), bias=False)
        (bn3): BatchNorm2d(512, eps=1e-05, momentum=0.1, affine=True, track_running_stats=True)
        (relu): ReLU(inplace=True)
        (downsample): Sequential(
          (0): Conv2d(256, 512, kernel_size=(1, 1), stride=(2, 2), bias=False)
          (1): BatchNorm2d(512, eps=1e-05, momentum=0.1, affine=True, track_running_stats=True)
        )
      )
      (1): Bottle2neckShift(
        (me): MEModule(
          (conv1): Conv2d(208, 13, kernel_size=(1, 1), stride=(1, 1), bias=False)
          (bn1): BatchNorm2d(13, eps=1e-05, momentum=0.1, affine=True, track_running_stats=True)
          (conv2): Conv2d(13, 13, kernel_size=(3, 3), stride=(1, 1), padding=(1, 1), groups=13, bias=False)
          (avg_pool): AdaptiveAvgPool2d(output_size=1)
          (sigmoid): Sigmoid()
          (conv3): Conv2d(13, 208, kernel_size=(1, 1), stride=(1, 1), bias=False)
          (bn3): BatchNorm2d(208, eps=1e-05, momentum=0.1, affine=True, track_running_stats=True)
          (identity): Identity()
        )
        (conv1): Conv2d(512, 208, kernel_size=(1, 1), stride=(1, 1), bias=False)
        (bn1): BatchNorm2d(208, eps=1e-05, momentum=0.1, affine=True, track_running_stats=True)
        (convs): ModuleList(
          (0): Conv2d(52, 52, kernel_size=(3, 3), stride=(1, 1), padding=(1, 1), bias=False)
          (1): Conv2d(52, 52, kernel_size=(3, 3), stride=(1, 1), padding=(1, 1), bias=False)
          (2): Conv2d(52, 52, kernel_size=(3, 3), stride=(1, 1), padding=(1, 1), bias=False)
        )
        (bns): ModuleList(
          (0): BatchNorm2d(52, eps=1e-05, momentum=0.1, affine=True, track_running_stats=True)
          (1): BatchNorm2d(52, eps=1e-05, momentum=0.1, affine=True, track_running_stats=True)
          (2): BatchNorm2d(52, eps=1e-05, momentum=0.1, affine=True, track_running_stats=True)
        )
        (shifts): ModuleList(
          (0): ShiftModule(
            (conv): Conv1d(52, 52, kernel_size=(3,), stride=(1,), padding=(1,), groups=52, bias=False)
          )
          (1): ShiftModule(
            (conv): Conv1d(52, 52, kernel_size=(3,), stride=(1,), padding=(1,), groups=52, bias=False)
          )
          (2): ShiftModule(
            (conv): Conv1d(52, 52, kernel_size=(3,), stride=(1,), padding=(1,), groups=52, bias=False)
          )
          (3): ShiftModule(
            (conv): Conv1d(52, 52, kernel_size=(3,), stride=(1,), padding=(1,), groups=52, bias=False)
          )
        )
        (conv3): Conv2d(208, 512, kernel_size=(1, 1), stride=(1, 1), bias=False)
        (bn3): BatchNorm2d(512, eps=1e-05, momentum=0.1, affine=True, track_running_stats=True)
        (relu): ReLU(inplace=True)
      )
      (2): Bottle2neckShift(
        (me): MEModule(
          (conv1): Conv2d(208, 13, kernel_size=(1, 1), stride=(1, 1), bias=False)
          (bn1): BatchNorm2d(13, eps=1e-05, momentum=0.1, affine=True, track_running_stats=True)
          (conv2): Conv2d(13, 13, kernel_size=(3, 3), stride=(1, 1), padding=(1, 1), groups=13, bias=False)
          (avg_pool): AdaptiveAvgPool2d(output_size=1)
          (sigmoid): Sigmoid()
          (conv3): Conv2d(13, 208, kernel_size=(1, 1), stride=(1, 1), bias=False)
          (bn3): BatchNorm2d(208, eps=1e-05, momentum=0.1, affine=True, track_running_stats=True)
          (identity): Identity()
        )
        (conv1): Conv2d(512, 208, kernel_size=(1, 1), stride=(1, 1), bias=False)
        (bn1): BatchNorm2d(208, eps=1e-05, momentum=0.1, affine=True, track_running_stats=True)
        (convs): ModuleList(
          (0): Conv2d(52, 52, kernel_size=(3, 3), stride=(1, 1), padding=(1, 1), bias=False)
          (1): Conv2d(52, 52, kernel_size=(3, 3), stride=(1, 1), padding=(1, 1), bias=False)
          (2): Conv2d(52, 52, kernel_size=(3, 3), stride=(1, 1), padding=(1, 1), bias=False)
        )
        (bns): ModuleList(
          (0): BatchNorm2d(52, eps=1e-05, momentum=0.1, affine=True, track_running_stats=True)
          (1): BatchNorm2d(52, eps=1e-05, momentum=0.1, affine=True, track_running_stats=True)
          (2): BatchNorm2d(52, eps=1e-05, momentum=0.1, affine=True, track_running_stats=True)
        )
        (shifts): ModuleList(
          (0): ShiftModule(
            (conv): Conv1d(52, 52, kernel_size=(3,), stride=(1,), padding=(1,), groups=52, bias=False)
          )
          (1): ShiftModule(
            (conv): Conv1d(52, 52, kernel_size=(3,), stride=(1,), padding=(1,), groups=52, bias=False)
          )
          (2): ShiftModule(
            (conv): Conv1d(52, 52, kernel_size=(3,), stride=(1,), padding=(1,), groups=52, bias=False)
          )
          (3): ShiftModule(
            (conv): Conv1d(52, 52, kernel_size=(3,), stride=(1,), padding=(1,), groups=52, bias=False)
          )
        )
        (conv3): Conv2d(208, 512, kernel_size=(1, 1), stride=(1, 1), bias=False)
        (bn3): BatchNorm2d(512, eps=1e-05, momentum=0.1, affine=True, track_running_stats=True)
        (relu): ReLU(inplace=True)
      )
      (3): Bottle2neckShift(
        (me): MEModule(
          (conv1): Conv2d(208, 13, kernel_size=(1, 1), stride=(1, 1), bias=False)
          (bn1): BatchNorm2d(13, eps=1e-05, momentum=0.1, affine=True, track_running_stats=True)
          (conv2): Conv2d(13, 13, kernel_size=(3, 3), stride=(1, 1), padding=(1, 1), groups=13, bias=False)
          (avg_pool): AdaptiveAvgPool2d(output_size=1)
          (sigmoid): Sigmoid()
          (conv3): Conv2d(13, 208, kernel_size=(1, 1), stride=(1, 1), bias=False)
          (bn3): BatchNorm2d(208, eps=1e-05, momentum=0.1, affine=True, track_running_stats=True)
          (identity): Identity()
        )
        (conv1): Conv2d(512, 208, kernel_size=(1, 1), stride=(1, 1), bias=False)
        (bn1): BatchNorm2d(208, eps=1e-05, momentum=0.1, affine=True, track_running_stats=True)
        (convs): ModuleList(
          (0): Conv2d(52, 52, kernel_size=(3, 3), stride=(1, 1), padding=(1, 1), bias=False)
          (1): Conv2d(52, 52, kernel_size=(3, 3), stride=(1, 1), padding=(1, 1), bias=False)
          (2): Conv2d(52, 52, kernel_size=(3, 3), stride=(1, 1), padding=(1, 1), bias=False)
        )
        (bns): ModuleList(
          (0): BatchNorm2d(52, eps=1e-05, momentum=0.1, affine=True, track_running_stats=True)
          (1): BatchNorm2d(52, eps=1e-05, momentum=0.1, affine=True, track_running_stats=True)
          (2): BatchNorm2d(52, eps=1e-05, momentum=0.1, affine=True, track_running_stats=True)
        )
        (shifts): ModuleList(
          (0): ShiftModule(
            (conv): Conv1d(52, 52, kernel_size=(3,), stride=(1,), padding=(1,), groups=52, bias=False)
          )
          (1): ShiftModule(
            (conv): Conv1d(52, 52, kernel_size=(3,), stride=(1,), padding=(1,), groups=52, bias=False)
          )
          (2): ShiftModule(
            (conv): Conv1d(52, 52, kernel_size=(3,), stride=(1,), padding=(1,), groups=52, bias=False)
          )
          (3): ShiftModule(
            (conv): Conv1d(52, 52, kernel_size=(3,), stride=(1,), padding=(1,), groups=52, bias=False)
          )
        )
        (conv3): Conv2d(208, 512, kernel_size=(1, 1), stride=(1, 1), bias=False)
        (bn3): BatchNorm2d(512, eps=1e-05, momentum=0.1, affine=True, track_running_stats=True)
        (relu): ReLU(inplace=True)
      )
    )
    (layer3): Sequential(
      (0): Bottle2neckShift(
        (me): MEModule(
          (conv1): Conv2d(416, 26, kernel_size=(1, 1), stride=(1, 1), bias=False)
          (bn1): BatchNorm2d(26, eps=1e-05, momentum=0.1, affine=True, track_running_stats=True)
          (conv2): Conv2d(26, 26, kernel_size=(3, 3), stride=(1, 1), padding=(1, 1), groups=26, bias=False)
          (avg_pool): AdaptiveAvgPool2d(output_size=1)
          (sigmoid): Sigmoid()
          (conv3): Conv2d(26, 416, kernel_size=(1, 1), stride=(1, 1), bias=False)
          (bn3): BatchNorm2d(416, eps=1e-05, momentum=0.1, affine=True, track_running_stats=True)
          (identity): Identity()
        )
        (conv1): Conv2d(512, 416, kernel_size=(1, 1), stride=(1, 1), bias=False)
        (bn1): BatchNorm2d(416, eps=1e-05, momentum=0.1, affine=True, track_running_stats=True)
        (pool): AvgPool2d(kernel_size=3, stride=2, padding=1)
        (convs): ModuleList(
          (0): Conv2d(104, 104, kernel_size=(3, 3), stride=(2, 2), padding=(1, 1), bias=False)
          (1): Conv2d(104, 104, kernel_size=(3, 3), stride=(2, 2), padding=(1, 1), bias=False)
          (2): Conv2d(104, 104, kernel_size=(3, 3), stride=(2, 2), padding=(1, 1), bias=False)
        )
        (bns): ModuleList(
          (0): BatchNorm2d(104, eps=1e-05, momentum=0.1, affine=True, track_running_stats=True)
          (1): BatchNorm2d(104, eps=1e-05, momentum=0.1, affine=True, track_running_stats=True)
          (2): BatchNorm2d(104, eps=1e-05, momentum=0.1, affine=True, track_running_stats=True)
        )
        (shifts): ModuleList(
          (0): ShiftModule(
            (conv): Conv1d(104, 104, kernel_size=(3,), stride=(1,), padding=(1,), groups=104, bias=False)
          )
          (1): ShiftModule(
            (conv): Conv1d(104, 104, kernel_size=(3,), stride=(1,), padding=(1,), groups=104, bias=False)
          )
          (2): ShiftModule(
            (conv): Conv1d(104, 104, kernel_size=(3,), stride=(1,), padding=(1,), groups=104, bias=False)
          )
          (3): ShiftModule(
            (conv): Conv1d(104, 104, kernel_size=(3,), stride=(1,), padding=(1,), groups=104, bias=False)
          )
        )
        (conv3): Conv2d(416, 1024, kernel_size=(1, 1), stride=(1, 1), bias=False)
        (bn3): BatchNorm2d(1024, eps=1e-05, momentum=0.1, affine=True, track_running_stats=True)
        (relu): ReLU(inplace=True)
        (downsample): Sequential(
          (0): Conv2d(512, 1024, kernel_size=(1, 1), stride=(2, 2), bias=False)
          (1): BatchNorm2d(1024, eps=1e-05, momentum=0.1, affine=True, track_running_stats=True)
        )
      )
      (1): Bottle2neckShift(
        (me): MEModule(
          (conv1): Conv2d(416, 26, kernel_size=(1, 1), stride=(1, 1), bias=False)
          (bn1): BatchNorm2d(26, eps=1e-05, momentum=0.1, affine=True, track_running_stats=True)
          (conv2): Conv2d(26, 26, kernel_size=(3, 3), stride=(1, 1), padding=(1, 1), groups=26, bias=False)
          (avg_pool): AdaptiveAvgPool2d(output_size=1)
          (sigmoid): Sigmoid()
          (conv3): Conv2d(26, 416, kernel_size=(1, 1), stride=(1, 1), bias=False)
          (bn3): BatchNorm2d(416, eps=1e-05, momentum=0.1, affine=True, track_running_stats=True)
          (identity): Identity()
        )
        (conv1): Conv2d(1024, 416, kernel_size=(1, 1), stride=(1, 1), bias=False)
        (bn1): BatchNorm2d(416, eps=1e-05, momentum=0.1, affine=True, track_running_stats=True)
        (convs): ModuleList(
          (0): Conv2d(104, 104, kernel_size=(3, 3), stride=(1, 1), padding=(1, 1), bias=False)
          (1): Conv2d(104, 104, kernel_size=(3, 3), stride=(1, 1), padding=(1, 1), bias=False)
          (2): Conv2d(104, 104, kernel_size=(3, 3), stride=(1, 1), padding=(1, 1), bias=False)
        )
        (bns): ModuleList(
          (0): BatchNorm2d(104, eps=1e-05, momentum=0.1, affine=True, track_running_stats=True)
          (1): BatchNorm2d(104, eps=1e-05, momentum=0.1, affine=True, track_running_stats=True)
          (2): BatchNorm2d(104, eps=1e-05, momentum=0.1, affine=True, track_running_stats=True)
        )
        (shifts): ModuleList(
          (0): ShiftModule(
            (conv): Conv1d(104, 104, kernel_size=(3,), stride=(1,), padding=(1,), groups=104, bias=False)
          )
          (1): ShiftModule(
            (conv): Conv1d(104, 104, kernel_size=(3,), stride=(1,), padding=(1,), groups=104, bias=False)
          )
          (2): ShiftModule(
            (conv): Conv1d(104, 104, kernel_size=(3,), stride=(1,), padding=(1,), groups=104, bias=False)
          )
          (3): ShiftModule(
            (conv): Conv1d(104, 104, kernel_size=(3,), stride=(1,), padding=(1,), groups=104, bias=False)
          )
        )
        (conv3): Conv2d(416, 1024, kernel_size=(1, 1), stride=(1, 1), bias=False)
        (bn3): BatchNorm2d(1024, eps=1e-05, momentum=0.1, affine=True, track_running_stats=True)
        (relu): ReLU(inplace=True)
      )
      (2): Bottle2neckShift(
        (me): MEModule(
          (conv1): Conv2d(416, 26, kernel_size=(1, 1), stride=(1, 1), bias=False)
          (bn1): BatchNorm2d(26, eps=1e-05, momentum=0.1, affine=True, track_running_stats=True)
          (conv2): Conv2d(26, 26, kernel_size=(3, 3), stride=(1, 1), padding=(1, 1), groups=26, bias=False)
          (avg_pool): AdaptiveAvgPool2d(output_size=1)
          (sigmoid): Sigmoid()
          (conv3): Conv2d(26, 416, kernel_size=(1, 1), stride=(1, 1), bias=False)
          (bn3): BatchNorm2d(416, eps=1e-05, momentum=0.1, affine=True, track_running_stats=True)
          (identity): Identity()
        )
        (conv1): Conv2d(1024, 416, kernel_size=(1, 1), stride=(1, 1), bias=False)
        (bn1): BatchNorm2d(416, eps=1e-05, momentum=0.1, affine=True, track_running_stats=True)
        (convs): ModuleList(
          (0): Conv2d(104, 104, kernel_size=(3, 3), stride=(1, 1), padding=(1, 1), bias=False)
          (1): Conv2d(104, 104, kernel_size=(3, 3), stride=(1, 1), padding=(1, 1), bias=False)
          (2): Conv2d(104, 104, kernel_size=(3, 3), stride=(1, 1), padding=(1, 1), bias=False)
        )
        (bns): ModuleList(
          (0): BatchNorm2d(104, eps=1e-05, momentum=0.1, affine=True, track_running_stats=True)
          (1): BatchNorm2d(104, eps=1e-05, momentum=0.1, affine=True, track_running_stats=True)
          (2): BatchNorm2d(104, eps=1e-05, momentum=0.1, affine=True, track_running_stats=True)
        )
        (shifts): ModuleList(
          (0): ShiftModule(
            (conv): Conv1d(104, 104, kernel_size=(3,), stride=(1,), padding=(1,), groups=104, bias=False)
          )
          (1): ShiftModule(
            (conv): Conv1d(104, 104, kernel_size=(3,), stride=(1,), padding=(1,), groups=104, bias=False)
          )
          (2): ShiftModule(
            (conv): Conv1d(104, 104, kernel_size=(3,), stride=(1,), padding=(1,), groups=104, bias=False)
          )
          (3): ShiftModule(
            (conv): Conv1d(104, 104, kernel_size=(3,), stride=(1,), padding=(1,), groups=104, bias=False)
          )
        )
        (conv3): Conv2d(416, 1024, kernel_size=(1, 1), stride=(1, 1), bias=False)
        (bn3): BatchNorm2d(1024, eps=1e-05, momentum=0.1, affine=True, track_running_stats=True)
        (relu): ReLU(inplace=True)
      )
      (3): Bottle2neckShift(
        (me): MEModule(
          (conv1): Conv2d(416, 26, kernel_size=(1, 1), stride=(1, 1), bias=False)
          (bn1): BatchNorm2d(26, eps=1e-05, momentum=0.1, affine=True, track_running_stats=True)
          (conv2): Conv2d(26, 26, kernel_size=(3, 3), stride=(1, 1), padding=(1, 1), groups=26, bias=False)
          (avg_pool): AdaptiveAvgPool2d(output_size=1)
          (sigmoid): Sigmoid()
          (conv3): Conv2d(26, 416, kernel_size=(1, 1), stride=(1, 1), bias=False)
          (bn3): BatchNorm2d(416, eps=1e-05, momentum=0.1, affine=True, track_running_stats=True)
          (identity): Identity()
        )
        (conv1): Conv2d(1024, 416, kernel_size=(1, 1), stride=(1, 1), bias=False)
        (bn1): BatchNorm2d(416, eps=1e-05, momentum=0.1, affine=True, track_running_stats=True)
        (convs): ModuleList(
          (0): Conv2d(104, 104, kernel_size=(3, 3), stride=(1, 1), padding=(1, 1), bias=False)
          (1): Conv2d(104, 104, kernel_size=(3, 3), stride=(1, 1), padding=(1, 1), bias=False)
          (2): Conv2d(104, 104, kernel_size=(3, 3), stride=(1, 1), padding=(1, 1), bias=False)
        )
        (bns): ModuleList(
          (0): BatchNorm2d(104, eps=1e-05, momentum=0.1, affine=True, track_running_stats=True)
          (1): BatchNorm2d(104, eps=1e-05, momentum=0.1, affine=True, track_running_stats=True)
          (2): BatchNorm2d(104, eps=1e-05, momentum=0.1, affine=True, track_running_stats=True)
        )
        (shifts): ModuleList(
          (0): ShiftModule(
            (conv): Conv1d(104, 104, kernel_size=(3,), stride=(1,), padding=(1,), groups=104, bias=False)
          )
          (1): ShiftModule(
            (conv): Conv1d(104, 104, kernel_size=(3,), stride=(1,), padding=(1,), groups=104, bias=False)
          )
          (2): ShiftModule(
            (conv): Conv1d(104, 104, kernel_size=(3,), stride=(1,), padding=(1,), groups=104, bias=False)
          )
          (3): ShiftModule(
            (conv): Conv1d(104, 104, kernel_size=(3,), stride=(1,), padding=(1,), groups=104, bias=False)
          )
        )
        (conv3): Conv2d(416, 1024, kernel_size=(1, 1), stride=(1, 1), bias=False)
        (bn3): BatchNorm2d(1024, eps=1e-05, momentum=0.1, affine=True, track_running_stats=True)
        (relu): ReLU(inplace=True)
      )
      (4): Bottle2neckShift(
        (me): MEModule(
          (conv1): Conv2d(416, 26, kernel_size=(1, 1), stride=(1, 1), bias=False)
          (bn1): BatchNorm2d(26, eps=1e-05, momentum=0.1, affine=True, track_running_stats=True)
          (conv2): Conv2d(26, 26, kernel_size=(3, 3), stride=(1, 1), padding=(1, 1), groups=26, bias=False)
          (avg_pool): AdaptiveAvgPool2d(output_size=1)
          (sigmoid): Sigmoid()
          (conv3): Conv2d(26, 416, kernel_size=(1, 1), stride=(1, 1), bias=False)
          (bn3): BatchNorm2d(416, eps=1e-05, momentum=0.1, affine=True, track_running_stats=True)
          (identity): Identity()
        )
        (conv1): Conv2d(1024, 416, kernel_size=(1, 1), stride=(1, 1), bias=False)
        (bn1): BatchNorm2d(416, eps=1e-05, momentum=0.1, affine=True, track_running_stats=True)
        (convs): ModuleList(
          (0): Conv2d(104, 104, kernel_size=(3, 3), stride=(1, 1), padding=(1, 1), bias=False)
          (1): Conv2d(104, 104, kernel_size=(3, 3), stride=(1, 1), padding=(1, 1), bias=False)
          (2): Conv2d(104, 104, kernel_size=(3, 3), stride=(1, 1), padding=(1, 1), bias=False)
        )
        (bns): ModuleList(
          (0): BatchNorm2d(104, eps=1e-05, momentum=0.1, affine=True, track_running_stats=True)
          (1): BatchNorm2d(104, eps=1e-05, momentum=0.1, affine=True, track_running_stats=True)
          (2): BatchNorm2d(104, eps=1e-05, momentum=0.1, affine=True, track_running_stats=True)
        )
        (shifts): ModuleList(
          (0): ShiftModule(
            (conv): Conv1d(104, 104, kernel_size=(3,), stride=(1,), padding=(1,), groups=104, bias=False)
          )
          (1): ShiftModule(
            (conv): Conv1d(104, 104, kernel_size=(3,), stride=(1,), padding=(1,), groups=104, bias=False)
          )
          (2): ShiftModule(
            (conv): Conv1d(104, 104, kernel_size=(3,), stride=(1,), padding=(1,), groups=104, bias=False)
          )
          (3): ShiftModule(
            (conv): Conv1d(104, 104, kernel_size=(3,), stride=(1,), padding=(1,), groups=104, bias=False)
          )
        )
        (conv3): Conv2d(416, 1024, kernel_size=(1, 1), stride=(1, 1), bias=False)
        (bn3): BatchNorm2d(1024, eps=1e-05, momentum=0.1, affine=True, track_running_stats=True)
        (relu): ReLU(inplace=True)
      )
      (5): Bottle2neckShift(
        (me): MEModule(
          (conv1): Conv2d(416, 26, kernel_size=(1, 1), stride=(1, 1), bias=False)
          (bn1): BatchNorm2d(26, eps=1e-05, momentum=0.1, affine=True, track_running_stats=True)
          (conv2): Conv2d(26, 26, kernel_size=(3, 3), stride=(1, 1), padding=(1, 1), groups=26, bias=False)
          (avg_pool): AdaptiveAvgPool2d(output_size=1)
          (sigmoid): Sigmoid()
          (conv3): Conv2d(26, 416, kernel_size=(1, 1), stride=(1, 1), bias=False)
          (bn3): BatchNorm2d(416, eps=1e-05, momentum=0.1, affine=True, track_running_stats=True)
          (identity): Identity()
        )
        (conv1): Conv2d(1024, 416, kernel_size=(1, 1), stride=(1, 1), bias=False)
        (bn1): BatchNorm2d(416, eps=1e-05, momentum=0.1, affine=True, track_running_stats=True)
        (convs): ModuleList(
          (0): Conv2d(104, 104, kernel_size=(3, 3), stride=(1, 1), padding=(1, 1), bias=False)
          (1): Conv2d(104, 104, kernel_size=(3, 3), stride=(1, 1), padding=(1, 1), bias=False)
          (2): Conv2d(104, 104, kernel_size=(3, 3), stride=(1, 1), padding=(1, 1), bias=False)
        )
        (bns): ModuleList(
          (0): BatchNorm2d(104, eps=1e-05, momentum=0.1, affine=True, track_running_stats=True)
          (1): BatchNorm2d(104, eps=1e-05, momentum=0.1, affine=True, track_running_stats=True)
          (2): BatchNorm2d(104, eps=1e-05, momentum=0.1, affine=True, track_running_stats=True)
        )
        (shifts): ModuleList(
          (0): ShiftModule(
            (conv): Conv1d(104, 104, kernel_size=(3,), stride=(1,), padding=(1,), groups=104, bias=False)
          )
          (1): ShiftModule(
            (conv): Conv1d(104, 104, kernel_size=(3,), stride=(1,), padding=(1,), groups=104, bias=False)
          )
          (2): ShiftModule(
            (conv): Conv1d(104, 104, kernel_size=(3,), stride=(1,), padding=(1,), groups=104, bias=False)
          )
          (3): ShiftModule(
            (conv): Conv1d(104, 104, kernel_size=(3,), stride=(1,), padding=(1,), groups=104, bias=False)
          )
        )
        (conv3): Conv2d(416, 1024, kernel_size=(1, 1), stride=(1, 1), bias=False)
        (bn3): BatchNorm2d(1024, eps=1e-05, momentum=0.1, affine=True, track_running_stats=True)
        (relu): ReLU(inplace=True)
      )
    )
    (layer4): Sequential(
      (0): Bottle2neckShift(
        (me): MEModule(
          (conv1): Conv2d(832, 52, kernel_size=(1, 1), stride=(1, 1), bias=False)
          (bn1): BatchNorm2d(52, eps=1e-05, momentum=0.1, affine=True, track_running_stats=True)
          (conv2): Conv2d(52, 52, kernel_size=(3, 3), stride=(1, 1), padding=(1, 1), groups=52, bias=False)
          (avg_pool): AdaptiveAvgPool2d(output_size=1)
          (sigmoid): Sigmoid()
          (conv3): Conv2d(52, 832, kernel_size=(1, 1), stride=(1, 1), bias=False)
          (bn3): BatchNorm2d(832, eps=1e-05, momentum=0.1, affine=True, track_running_stats=True)
          (identity): Identity()
        )
        (conv1): Conv2d(1024, 832, kernel_size=(1, 1), stride=(1, 1), bias=False)
        (bn1): BatchNorm2d(832, eps=1e-05, momentum=0.1, affine=True, track_running_stats=True)
        (pool): AvgPool2d(kernel_size=3, stride=2, padding=1)
        (convs): ModuleList(
          (0): Conv2d(208, 208, kernel_size=(3, 3), stride=(2, 2), padding=(1, 1), bias=False)
          (1): Conv2d(208, 208, kernel_size=(3, 3), stride=(2, 2), padding=(1, 1), bias=False)
          (2): Conv2d(208, 208, kernel_size=(3, 3), stride=(2, 2), padding=(1, 1), bias=False)
        )
        (bns): ModuleList(
          (0): BatchNorm2d(208, eps=1e-05, momentum=0.1, affine=True, track_running_stats=True)
          (1): BatchNorm2d(208, eps=1e-05, momentum=0.1, affine=True, track_running_stats=True)
          (2): BatchNorm2d(208, eps=1e-05, momentum=0.1, affine=True, track_running_stats=True)
        )
        (shifts): ModuleList(
          (0): ShiftModule(
            (conv): Conv1d(208, 208, kernel_size=(3,), stride=(1,), padding=(1,), groups=208, bias=False)
          )
          (1): ShiftModule(
            (conv): Conv1d(208, 208, kernel_size=(3,), stride=(1,), padding=(1,), groups=208, bias=False)
          )
          (2): ShiftModule(
            (conv): Conv1d(208, 208, kernel_size=(3,), stride=(1,), padding=(1,), groups=208, bias=False)
          )
          (3): ShiftModule(
            (conv): Conv1d(208, 208, kernel_size=(3,), stride=(1,), padding=(1,), groups=208, bias=False)
          )
        )
        (conv3): Conv2d(832, 2048, kernel_size=(1, 1), stride=(1, 1), bias=False)
        (bn3): BatchNorm2d(2048, eps=1e-05, momentum=0.1, affine=True, track_running_stats=True)
        (relu): ReLU(inplace=True)
        (downsample): Sequential(
          (0): Conv2d(1024, 2048, kernel_size=(1, 1), stride=(2, 2), bias=False)
          (1): BatchNorm2d(2048, eps=1e-05, momentum=0.1, affine=True, track_running_stats=True)
        )
      )
      (1): Bottle2neckShift(
        (me): MEModule(
          (conv1): Conv2d(832, 52, kernel_size=(1, 1), stride=(1, 1), bias=False)
          (bn1): BatchNorm2d(52, eps=1e-05, momentum=0.1, affine=True, track_running_stats=True)
          (conv2): Conv2d(52, 52, kernel_size=(3, 3), stride=(1, 1), padding=(1, 1), groups=52, bias=False)
          (avg_pool): AdaptiveAvgPool2d(output_size=1)
          (sigmoid): Sigmoid()
          (conv3): Conv2d(52, 832, kernel_size=(1, 1), stride=(1, 1), bias=False)
          (bn3): BatchNorm2d(832, eps=1e-05, momentum=0.1, affine=True, track_running_stats=True)
          (identity): Identity()
        )
        (conv1): Conv2d(2048, 832, kernel_size=(1, 1), stride=(1, 1), bias=False)
        (bn1): BatchNorm2d(832, eps=1e-05, momentum=0.1, affine=True, track_running_stats=True)
        (convs): ModuleList(
          (0): Conv2d(208, 208, kernel_size=(3, 3), stride=(1, 1), padding=(1, 1), bias=False)
          (1): Conv2d(208, 208, kernel_size=(3, 3), stride=(1, 1), padding=(1, 1), bias=False)
          (2): Conv2d(208, 208, kernel_size=(3, 3), stride=(1, 1), padding=(1, 1), bias=False)
        )
        (bns): ModuleList(
          (0): BatchNorm2d(208, eps=1e-05, momentum=0.1, affine=True, track_running_stats=True)
          (1): BatchNorm2d(208, eps=1e-05, momentum=0.1, affine=True, track_running_stats=True)
          (2): BatchNorm2d(208, eps=1e-05, momentum=0.1, affine=True, track_running_stats=True)
        )
        (shifts): ModuleList(
          (0): ShiftModule(
            (conv): Conv1d(208, 208, kernel_size=(3,), stride=(1,), padding=(1,), groups=208, bias=False)
          )
          (1): ShiftModule(
            (conv): Conv1d(208, 208, kernel_size=(3,), stride=(1,), padding=(1,), groups=208, bias=False)
          )
          (2): ShiftModule(
            (conv): Conv1d(208, 208, kernel_size=(3,), stride=(1,), padding=(1,), groups=208, bias=False)
          )
          (3): ShiftModule(
            (conv): Conv1d(208, 208, kernel_size=(3,), stride=(1,), padding=(1,), groups=208, bias=False)
          )
        )
        (conv3): Conv2d(832, 2048, kernel_size=(1, 1), stride=(1, 1), bias=False)
        (bn3): BatchNorm2d(2048, eps=1e-05, momentum=0.1, affine=True, track_running_stats=True)
        (relu): ReLU(inplace=True)
      )
      (2): Bottle2neckShift(
        (me): MEModule(
          (conv1): Conv2d(832, 52, kernel_size=(1, 1), stride=(1, 1), bias=False)
          (bn1): BatchNorm2d(52, eps=1e-05, momentum=0.1, affine=True, track_running_stats=True)
          (conv2): Conv2d(52, 52, kernel_size=(3, 3), stride=(1, 1), padding=(1, 1), groups=52, bias=False)
          (avg_pool): AdaptiveAvgPool2d(output_size=1)
          (sigmoid): Sigmoid()
          (conv3): Conv2d(52, 832, kernel_size=(1, 1), stride=(1, 1), bias=False)
          (bn3): BatchNorm2d(832, eps=1e-05, momentum=0.1, affine=True, track_running_stats=True)
          (identity): Identity()
        )
        (conv1): Conv2d(2048, 832, kernel_size=(1, 1), stride=(1, 1), bias=False)
        (bn1): BatchNorm2d(832, eps=1e-05, momentum=0.1, affine=True, track_running_stats=True)
        (convs): ModuleList(
          (0): Conv2d(208, 208, kernel_size=(3, 3), stride=(1, 1), padding=(1, 1), bias=False)
          (1): Conv2d(208, 208, kernel_size=(3, 3), stride=(1, 1), padding=(1, 1), bias=False)
          (2): Conv2d(208, 208, kernel_size=(3, 3), stride=(1, 1), padding=(1, 1), bias=False)
        )
        (bns): ModuleList(
          (0): BatchNorm2d(208, eps=1e-05, momentum=0.1, affine=True, track_running_stats=True)
          (1): BatchNorm2d(208, eps=1e-05, momentum=0.1, affine=True, track_running_stats=True)
          (2): BatchNorm2d(208, eps=1e-05, momentum=0.1, affine=True, track_running_stats=True)
        )
        (shifts): ModuleList(
          (0): ShiftModule(
            (conv): Conv1d(208, 208, kernel_size=(3,), stride=(1,), padding=(1,), groups=208, bias=False)
          )
          (1): ShiftModule(
            (conv): Conv1d(208, 208, kernel_size=(3,), stride=(1,), padding=(1,), groups=208, bias=False)
          )
          (2): ShiftModule(
            (conv): Conv1d(208, 208, kernel_size=(3,), stride=(1,), padding=(1,), groups=208, bias=False)
          )
          (3): ShiftModule(
            (conv): Conv1d(208, 208, kernel_size=(3,), stride=(1,), padding=(1,), groups=208, bias=False)
          )
        )
        (conv3): Conv2d(832, 2048, kernel_size=(1, 1), stride=(1, 1), bias=False)
        (bn3): BatchNorm2d(2048, eps=1e-05, momentum=0.1, affine=True, track_running_stats=True)
        (relu): ReLU(inplace=True)
      )
    )
    (avgpool): AdaptiveAvgPool2d(output_size=1)
    (fc): Dropout(p=0.5, inplace=False)
  )
  (new_fc): Linear(in_features=2048, out_features=174, bias=True)
  (consensus): ConsensusModule()
)
[32m[03/31 15:31:30 TDN]: [39m[TDN-tea50]group: first_conv_weight has 1 params, lr_mult: 1, decay_mult: 1
[32m[03/31 15:31:30 TDN]: [39m[TDN-tea50]group: first_conv_bias has 0 params, lr_mult: 2, decay_mult: 0
[32m[03/31 15:31:30 TDN]: [39m[TDN-tea50]group: normal_weight has 196 params, lr_mult: 1, decay_mult: 1
…
